Implementation/ci/ga_optimized_model.pth (torch, 230442 bytes, 25 tensors)

conv1.0.weight f4 [29, 1, 3, 3]
000000 8e c6 5c bc 44 3d 2e be e0 e6 ae be 79 77 27 be
       -0.0134750735 -0.17015558 -0.3416052 -0.16354169
000010 9d 16 6b bc 2e 9b 30 be 44 4f ba 3d 98 37 23 bd
       -0.014348653 -0.17246696 0.0909715 -0.03984794
000020 c9 48 ec be c9 21 3f 3e 68 dc df 3e fc 3a 07 3f
       -0.4614928 0.18665232 0.43722844 0.5282438
000030 49 a7 96 be 57 41 29 bf 63 e6 68 bf 41 73 2c 3e
       -0.29424503 -0.66115326 -0.9097654 0.16840841
000040 dd fe fc 3e 3b 6d 03 3f e8 91 b0 be 80 71 27 3e
       0.49413195 0.5133855 -0.34486318 0.1635189
000050 08 61 19 be 4c 03 6e bd 69 40 6e be 11 14 31 be
       -0.1497842 -0.058108613 -0.23266758 -0.17292811
000060 c7 90 80 be 4e 29 75 be 69 79 ab 3e 20 ed 49 3d
       -0.25110456 -0.23941538 0.33491066 0.049298406
000070 06 d0 30 3f 4b 45 52 3e 79 08 ae be 16 74 69 bd
       0.6906742 0.20534246 -0.3399084 -0.056995474
000080 e4 8e 0d 3f 71 68 03 be a9 bf b5 be 01 f7 8b 3c
       0.5529616 -0.1283281 -0.35497788 0.017085554
000090 18 f9 19 3e be 9e f0 3c 1d 43 da be ab b8 d4 be
       0.15036428 0.02937257 -0.42629328 -0.4154714
0000a0 60 72 bf be cc 75 17 3f 82 66 b3 3e a2 1d 1d 3f
       -0.3739195 0.5916412 0.35039145 0.6137334
0000b0 20 36 6d 3e 23 f5 80 bd 7f 00 a8 be fc 96 0d bf
       0.23165178 -0.06296756 -0.32812878 -0.5530851
0000c0 51 df c4 3e c4 74 80 3f 70 99 3d 3f 47 18 b1 be
       0.38451627 1.0035634 0.7406225 -0.34588835
0000d0 d8 e9 f6 be 9e fc 3e be be 65 2c 3e c2 b2 03 bf
       -0.48225284 -0.18651053 0.16835687 -0.5144464
0000e0 1e f4 73 3e 06 ab 14 3f 22 07 60 3f b0 92 3e bf
       0.23823592 0.5807346 0.87510884 -0.7444258
0000f0 2f 97 16 bf 97 3f 42 3f 24 78 0d 3f 35 28 10 be
       -0.5882444 0.7587828 0.55261445 -0.14077838
000100 50 28 63 bd 01 59 fc be a7 e2 1d 3d 13 b0 e3 3d
       -0.055458367 -0.49286655 0.03854623 0.11117568
000110 8e ad e2 be 71 70 00 be a5 c3 38 bd fe d0 6d be
       -0.44273037 -0.12542893 -0.045108456 -0.23224255
000120 a4 ca bc 3e a7 be ac be fe 23 a9 3c 4f 30 04 3f
       0.36873353 -0.33739206 0.020647045 0.51636213
000130 5e a0 fe bd e3 7b 82 be 67 3d 51 3e 5f 6b 12 3f
       -0.12432931 -0.25485143 0.2043358 0.57195085
000140 53 84 dc 3e 9a de 1b bf 10 8d 46 3f 1f 7f 2c 3f
       0.43069705 -0.6088654 0.77558994 0.6738147
000150 67 42 42 3f 6d a6 0d 3f 67 6c 44 bf 5f f8 30 3d
       0.7588257 0.5533207 -0.7672791 0.043205615
000160 11 e9 db be 0b 3b e3 3e 00 c5 08 3f ed 3a 2e 3f
       -0.42951253 0.44380984 0.534256 0.68058664
000170 f7 07 d7 bd 6c e5 2a bf 6a 83 ee 3d fa fc 3d 3f
       -0.10499566 -0.6675632 0.11646159 0.74214137
000180 f6 60 e2 3e 2f d8 24 bf f8 29 7d 3e 2e 8e ce be
       0.442146 -0.6439237 0.24723041 -0.4034285
000190 2d 73 31 be db 22 ae be a8 44 05 3d a6 72 9a 3e
       -0.17329092 -0.34010968 0.03253618 0.30165595
0001a0 36 c1 34 3e 98 a5 b1 be 22 2f 7c be ca 8c d7 be
       0.17651829 -0.3469665 -0.24627355 -0.420996
0001b0 14 43 b2 be 39 0c ac 3d b6 1e b9 3e c2 09 43 3e
       -0.34816802 0.08400769 0.36156243 0.19046691
0001c0 a4 98 5c bf 98 07 02 3f ea d2 1c 3f 1c 09 25 bf
       -0.8617041 0.5079284 0.6125933 -0.64467025
0001d0 19 a7 4b 3d 02 b3 6d bd 87 44 72 3c 14 b9 c4 bc
       0.049719904 -0.058032043 0.014786846 -0.024014033
0001e0 59 c4 03 3d dd 87 17 bf c8 7a 23 be 75 a7 31 3f
       0.032169674 -0.59191686 -0.15964806 0.69396144
0001f0 f1 28 22 3f dd 06 10 3f 64 7a 99 bd 8a 93 ed be
       0.6334372 0.5626047 -0.07494047 -0.46401626
000200 13 c1 02 bf a4 08 75 3e 11 23 2d bc 4e c7 4b 3e
       -0.5107586 0.23929077 -0.0105674425 0.19900247
000210 5f 32 50 bd e8 51 01 bc ed 78 0a be 30 60 63 be
       -0.050829288 -0.007893063 -0.13522692 -0.22204661
000220 2e a3 d8 bd 73 05 80 3e 73 82 05 3f 45 4d 35 bf
       -0.10577999 0.25004157 0.52152175 -0.7082103
000230 47 89 be 3c fc 2c 39 3f 4a 78 45 3e ae d1 99 be
       0.023258818 0.72334266 0.19284168 -0.30042785
000240 19 7f aa bd 48 83 f4 3e cb 2c c1 3e 4d 2c df be
       -0.08325023 0.4775641 0.37729487 -0.43588486
000250 32 12 3e bf 82 2e 35 bf a0 85 1b 3f 83 4a fe 3e
       -0.74246514 -0.7077409 0.6075077 0.49666223
000260 98 28 21 3e e3 f5 f8 bd 79 fc c9 3e 37 d5 96 be
       0.15738142 -0.12156274 0.39450434 -0.29459545
000270 42 b5 83 be 35 1d 6c 3f 15 f7 b0 be 9a 1b 0e be
       -0.25724226 0.92232066 -0.3456351 -0.13877717
000280 17 d1 62 3f 6f f2 19 bd 57 0f 82 3e 0d 45 b5 be
       0.88600296 -0.03758472 0.25402328 -0.35404244
000290 b6 78 05 3e eb f3 31 bf 31 d8 33 3f e8 28 a9 3e
       0.13034329 -0.69512814 0.70251757 0.33039021
0002a0 4a 03 8f 3e 8a 9c 61 3f c6 16 37 bf 62 9d b4 be
       0.27932197 0.88129485 -0.71519125 -0.35276324
0002b0 c0 4b 42 be 20 1f 22 bd 3a 80 d7 be 27 4e 3b be
       -0.18974209 -0.039580464 -0.42090017 -0.18291532
0002c0 0d cb 01 3d b3 4f 3e be 16 27 03 3d 54 f9 32 bd
       0.031687785 -0.1858509 0.032019697 -0.04369481
0002d0 08 b0 84 3e 29 91 a0 be 62 03 f1 3d 3a 26 f1 3e
       0.2591555 -0.31360748 0.11768223 0.47099477
0002e0 f4 60 26 bf 64 ef e5 3e 74 29 20 3f b0 13 43 bf
       -0.6499169 0.44909203 0.6256325 -0.76201916
0002f0 0a d0 09 3f 6c 73 2a 3f b0 5e d4 be c1 30 a1 3d
       0.5383307 0.6658237 -0.4147849 0.07870627
000300 37 4f 93 be 90 39 06 bf f6 56 16 3f a2 33 25 bc
       -0.28771374 -0.52431583 0.5872644 -0.010083111
000310 7b 1f 3f 3f 16 33 b1 3e 3b bf e1 3e 4c e0 90 3e
       0.7465741 0.34609288 0.4409121 0.28296125
000320 8a a8 41 3d a6 47 3a 3f e4 ae 97 be 6d 50 a5 be
       0.047279872 0.72765577 -0.29625618 -0.32287923
000330 e8 0d e2 3e 74 20 9c 3e ce d7 1d be a4 50 9e 3e
       0.44151235 0.3049351 -0.15414354 0.309209
000340 50 e0 0a bf d5 59 0d 39 8e a1 67 be 08 4f d2 be
       -0.54248524 0.00013480273 -0.22620222 -0.4107592
000350 74 72 e8 3e f6 f5 51 be 42 4d f6 3d 63 f3 93 3d
       0.4539982 -0.20503983 0.120264545 0.07224157
000360 49 90 b1 be 98 1f a3 bd 02 31 55 bd df ab bf be
       -0.34680393 -0.079650104 -0.05204869 -0.37435815
000370 d3 6c 13 bd 3e 4f c2 bd db 77 97 be f7 f3 00 bd
       -0.035992455 -0.094877705 -0.2958363 -0.031482663
000380 41 2e 2e be 7f 08 20 be 1f 8c 9f bd 68 11 d7 bd
       -0.17009832 -0.15628241 -0.07790398 -0.10501367
000390 3b 4f 85 bd ae 20 f7 bd 39 83 c1 bd 50 03 3c 3d
       -0.06509253 -0.1206678 -0.09448857 0.045901597
0003a0 c5 52 c8 be a2 d6 aa be b6 60 bd 3d bd bc 85 be
       -0.39125648 -0.33366877 0.09246962 -0.26120558
0003b0 1b f6 17 be 7b cc 11 bf eb 6c b6 3f 8e ef 23 bf
       -0.14839976 -0.5695264 1.4251989 -0.64037406
0003c0 df ce 1e be d3 f3 a8 be 2c 92 8d 3e 64 c8 36 3e
       -0.15508603 -0.32998523 0.27650583 0.1784988
0003d0 b8 80 7f 3d 5f 89 70 be b8 0d 11 3f b6 3f 0f 3d
       0.062378615 -0.23489903 0.5666156 0.03497287
0003e0 4f ee bf be 38 c9 9f 3e c9 75 7c be 2c c3 c8 3d
       -0.37486503 0.31208205 -0.24654306 0.09802851
0003f0 9d 11 09 bf 60 44 84 be 31 11 60 be 8e a0 68 3f
       -0.535425 -0.25833416 -0.21881558 0.90869987

conv1.1.weight f4 [29]
000000 80 52 8f 3e 80 81 1c 3f 1e 17 88 3e 08 1b 1c 3f
       0.2799263 0.611351 0.26580137 0.60978746
000010 15 0e 42 3f 52 bd 18 3f 33 f2 85 3f 23 97 9c 3e
       0.7580274 0.5966388 1.0464538 0.30584058
000020 00 99 71 3f 62 92 73 3f c0 a4 88 3f b7 b0 ee 3e
       0.94374084 0.9514524 1.0675278 0.46619198
000030 8e b4 fc 3e af 6d 6b 3f 16 e4 99 3e 6d a8 14 3f
       0.49356502 0.9196424 0.30056828 0.580695
000040 48 83 13 3f 16 01 48 3f 60 1b 21 3f 7e 32 9e 3e
       0.57622194 0.78126657 0.62932396 0.30897897
000050 63 1a 32 3f fb 16 4a 3f 87 0e 5f 3f 98 f3 c2 3e
       0.6957151 0.78941315 0.8713154 0.38076472
000060 78 12 97 3e c6 28 80 3e 00 3f 09 3f 39 51 f5 3e
       0.29506278 0.25031108 0.53611755 0.4791353
000070 1e 55 0f 3f
       0.55989254

conv1.1.bias f4 [29]
000000 01 9b f2 3d f9 61 ef bd 6c e3 d5 3d 0a 10 ea bd
       0.11845971 -0.11688609 0.10443768 -0.114288405
000010 0d 1c 56 be 4a a7 df bd c7 4a 98 be 21 86 d3 3d
       -0.20909138 -0.1092058 -0.2974455 0.103283174
000020 21 ae 0b be e1 6f 97 be a6 d2 d1 be 5d e3 cc be
       -0.13640644 -0.29577544 -0.40981025 -0.40017214
000030 9d 12 49 bf de d5 ac bd 96 0b d5 3d 63 7e 34 bf
       -0.78544027 -0.084392294 0.104026005 -0.7050535
000040 ef ae 15 bf 0c 6f e6 bd 73 8b d4 bd f1 1e f8 3d
       -0.5847005 -0.11251649 -0.1037816 0.121152766
000050 09 45 3f be 47 ca aa be a6 fe a4 be f7 74 2a bf
       -0.18678679 -0.3335745 -0.3222553 -0.66584724
000060 c9 5a 10 3e 9d 35 e6 3d a2 d4 7c bf 45 41 17 3d
       0.14097132 0.11240695 -0.9876195 0.03692748
000070 82 4c 47 be
       -0.19462779

conv1.1.running_mean f4 [29]
000000 2f 8f 8f bf c0 f6 ac 3e fa 81 57 bf 68 26 0f 3f
       -1.1215571 0.33782005 -0.84182703 0.5591798
000010 eb 1f 24 3f 5a cb 68 3e 6e bb 98 3f 76 17 99 bf
       0.641112 0.22733822 1.1932199 -1.1960285
000020 3f f7 99 3f e1 8d a4 3f 62 37 95 3f 77 0e 9a bf
       1.2028579 1.2855798 1.1657526 -1.2035664
000030 1b 1c c7 bd 15 0e 6c 3f c2 d0 33 bf 6d 3c 94 3e
       -0.097221576 0.9220899 -0.70240414 0.2895235
000040 cb 0f 89 3d 4d a6 73 3f 4d c7 40 3f 72 36 98 bf
       0.066924654 0.9517563 0.7530411 -1.1891615
000050 4b 42 13 3f 4f af 80 3f ae 58 a3 3f f3 58 cd be
       0.5752303 1.00535 1.2761438 -0.40106925
000060 c8 75 a5 bf 37 65 92 bf a3 d0 69 be fd 91 b0 3e
       -1.2926569 -1.1437138 -0.22833495 0.3448638
000070 61 e6 c3 3d
       0.09565426

conv1.1.running_var f4 [29]
000000 f1 63 0a 3e d0 e8 20 3e b5 1f a7 3d 95 4a 1d 3e
       0.13514687 0.15713811 0.081603445 0.15360482
000010 07 87 18 3e 49 ff 17 3e 59 ef 41 3e 53 ab 2e 3e
       0.14895259 0.14843477 0.1893896 0.17057543
000020 f0 3c 5e 3e 47 9d 7e 3e 9d 98 50 3e 07 81 2e 3e
       0.21702933 0.24864684 0.20370717 0.17041408
000030 ec e1 c7 3d ee 18 86 3e eb 3e ce 3d 67 0f ea 3d
       0.09759888 0.26190895 0.100705944 0.11428719
000040 52 5e 14 3e 35 c3 53 3e 31 af 1b 3e f3 46 20 3e
       0.14489105 0.20679934 0.15203549 0.15652065
000050 26 64 3c 3e 6a b0 59 3e 6f 4c a3 3e 02 91 98 3d
       0.18397579 0.21258703 0.31894252 0.07449533
000060 76 e2 25 3e 13 25 f3 3d eb f8 91 3d c5 44 fa 3d
       0.16199669 0.11872306 0.071275555 0.12220148
000070 48 2d ec 3d
       0.11532074

sep1.dw.weight f4 [29, 1, 3, 3]
000000 1e c0 0f be bb 3e 10 be af 10 3e bd 28 88 0f 3d
       -0.1403813 -0.1408643 -0.04640263 0.035041958
000010 f5 aa a0 3d 89 6c fe 3e 14 a4 3c be 82 d8 94 3d
       0.078451075 0.4969218 -0.18421966 0.07267858
000020 fb ac 07 3f cf 5a cb 3d 00 db ff bd 0d ff db be
       0.5299832 0.0992943 -0.12492943 -0.42968026
000030 64 a4 c3 3d ea d0 92 be 80 5d 00 bf b9 73 29 3c
       0.095528394 -0.28675014 -0.5014267 0.010342532
000040 fd 01 ea bd 71 c4 6a be e5 01 c5 3e ed ba e6 3e
       -0.114261605 -0.22926499 0.38478008 0.45064488
000050 74 b7 5b 3e 84 51 9c 3d 8a 35 84 3d cc aa 9e bd
       0.214567 0.07632735 0.06455524 -0.07747421
000060 54 3e 44 be 0a 60 41 be 7b c4 83 be 03 34 56 be
       -0.19164401 -0.18884292 -0.2573584 -0.20918278
000070 ea 68 85 3d 71 53 38 3e c0 80 cb be 42 7b 7a be
       0.065141514 0.1800058 -0.39746666 -0.24461082
000080 5c 41 2b bc 6d cc 8c be ed 57 37 be a9 fb 97 be
       -0.010452595 -0.27499714 -0.17904635 -0.2968419
000090 4a de ac 3d fe fa a0 be a4 d3 07 bf ce 91 be 3e
       0.08440836 -0.31441492 -0.5305731 0.37220615
0000a0 5c 4d 97 bd 03 7e 0c bf ab 9e ae 3e 0e b7 1f 3e
       -0.07387802 -0.5487978 0.3410543 0.15597174
0000b0 b9 16 e6 bd 7c ff 31 3d 08 ff 46 3e 51 49 ac 3e
       -0.11234803 0.04345654 0.19433224 0.33649686
0000c0 92 e8 02 3e 7b c7 b4 3e 23 53 c2 3e 2d d2 17 3e
       0.12784031 0.35308442 0.37954053 0.1482627
0000d0 29 b8 8b 3e 17 ff 2e 3e 5d 63 37 be b0 28 a2 be
       0.2728894 0.17089497 -0.17908998 -0.31671667
0000e0 11 9e 8f be eb b3 8f be a7 a8 fb be 86 dc be be
       -0.28050283 -0.28066954 -0.4915211 -0.3727762
0000f0 8f ec 6e be 28 68 a4 be 90 f5 67 be 67 66 25 bd
       -0.23332427 -0.32110715 -0.22652268 -0.04038086
000100 de 7f 64 bd 97 44 fb 3e dd fe 43 3d 71 6c d7 bd
       -0.055786006 0.49075767 0.04785048 -0.105187304
000110 a0 e1 03 3f 10 f2 30 be 85 f8 a5 bd 3e b7 6f 3e
       0.5151615 -0.1727984 -0.08104042 0.23409745
000120 6e 74 2f be 79 68 e6 be d7 5d 98 be 3f d9 ee be
       -0.17134258 -0.4500158 -0.29759094 -0.4665012
000130 59 f1 d4 be 75 7c 93 bd 15 10 1f be c7 6e 39 be
       -0.41590384 -0.07201473 -0.15533479 -0.18108664
000140 1e d6 09 bd c7 3a 60 3e 6a c4 57 3e 59 fc 03 3e
       -0.033651464 0.21897422 0.2107102 0.12889232
000150 49 97 b2 3e fb 65 f8 3e 1b d7 90 3e 6a 65 94 3e
       0.34881046 0.48515305 0.28289112 0.28983623
000160 6e a2 e9 3e 3a 2e 77 3e 96 b4 58 3e d7 6b d3 3e
       0.45631737 0.24138728 0.21162638 0.41293213
000170 94 44 76 3e 89 b5 a4 3e 9b 58 05 3f f3 fe 9d 3e
       0.24049598 0.3216975 0.52088326 0.30858573
000180 3c e5 94 3e 07 83 96 3e 7b 25 02 3e 68 90 8e 3d
       0.29081142 0.2939684 0.1270961 0.06961137
000190 80 39 4b 3e 40 3f 89 3e 63 7c c0 3e 0b f4 89 3e
       0.19846153 0.26806068 0.375949 0.26944003
0001a0 40 7c ac bd b3 31 63 3e 6f 37 b0 3b 73 0a a5 be
       -0.08422136 0.22186927 0.005377702 -0.32234535
0001b0 04 6a 49 3e 89 2c c7 3e 6e b1 be 3e 0e 1b 6a 3e
       0.19669348 0.38901165 0.37244743 0.22861883
0001c0 f8 58 be 3e 3d 11 73 3e 34 3a b2 3c c8 6b 94 3d
       0.37177253 0.23737045 0.021756269 0.0724712
0001d0 95 3b ab b9 1f 12 09 bf de 73 9c bd ac ea 19 3e
       -0.00032660054 -0.53543276 -0.076392874 0.15030926
0001e0 1d f1 37 bf dd 4b 06 be 7b 20 4d 3e b9 b6 bb be
       -0.71852285 -0.13114877 0.20031922 -0.36662844
0001f0 a6 bd 1e bd 91 be 5e 3e 4c 2b 4e bb 78 d1 fb 3d
       -0.03875508 0.21752383 -0.0031458912 0.12295812
000200 94 24 e8 3e 2e 53 8a be dc 17 56 3e b1 fa d4 3e
       0.45340407 -0.27016586 0.20907539 0.41597512
000210 92 0f 2e be e4 98 32 bc 4c f9 9c 3d 0b a2 e4 bd
       -0.16998127 -0.01090071 0.07664737 -0.1116372
000220 ca 3d 8e be ef 0c 29 be 7c db 16 3d 59 39 33 3e
       -0.27781516 -0.1650884 0.03683041 0.17502345
000230 f1 99 54 3e a3 2f a7 3e 44 71 19 3f c8 d4 db 3e
       0.20761849 0.3265353 0.59938455 0.42935777
000240 41 db e9 bd 51 70 77 be 60 81 a4 bd 57 ed 52 be
       -0.114187725 -0.24163939 -0.08032489 -0.2059835
000250 7c 4b e9 be 20 50 2a be 81 60 5d be 24 72 8d be
       -0.45565403 -0.16632128 -0.21618845 -0.27626145
000260 94 44 ba bd f4 e2 36 be 6f 39 bd be c5 17 96 be
       -0.090951115 -0.17860013 -0.3695788 -0.2931501
000270 56 04 21 be bf c9 ca be 3c b2 a3 be 55 cd 2e be
       -0.1572431 -0.39607045 -0.3197192 -0.17070515
000280 7d 35 91 be 45 0f 80 be a7 b3 06 be 38 51 43 be
       -0.2836112 -0.2501165 -0.1315447 -0.19073951
000290 e7 9e 0e be 88 c0 91 be 06 e2 c0 be ea 34 7e be
       -0.13927804 -0.28467202 -0.37672442 -0.24824873
0002a0 8f 15 71 be 64 fb c8 be bd b5 8d be 04 67 3b 3d
       -0.2354338 -0.39254296 -0.27677718 0.04575254
0002b0 21 d2 96 be f1 c5 54 be 03 ae c5 3e 8c f9 84 3e
       -0.2945719 -0.20778634 0.38609323 0.2597164
0002c0 cd ec 3c 3e 94 93 d7 3e b1 0d dd 3d 3a 53 aa be
       0.18449707 0.4210478 0.10793627 -0.33266622
0002d0 99 c0 10 3e b2 91 62 3e ce e8 16 3e 03 3f 4e 3e
       0.1413597 0.22125891 0.14737245 0.20141225
0002e0 42 4c a4 3e c1 39 2c 3e 8f fa 72 3e 37 8b 92 3e
       0.3208943 0.16818906 0.23728393 0.28621837
0002f0 3c 44 ed 3d ab 8b cc 3d 56 f1 6b 3d f2 eb f6 3c
       0.1158528 0.09987577 0.057603203 0.030141804
000300 90 12 b1 3e da 60 bf 3e 0c 81 69 3e ed e2 8f 3e
       0.34584475 0.3737858 0.22803134 0.28102818
000310 60 5a 02 3f ed 43 c3 3e 99 04 91 3e ba 32 b7 3e
       0.5091915 0.3813776 0.2832382 0.3578089
000320 55 8b d2 3d 7b f7 87 3e 4a ed f6 3e 9e 73 aa 3e
       0.10280482 0.26556 0.48227912 0.33291334
000330 64 f8 ff 3c 5c 92 96 3e 25 c6 a2 3e d2 91 9f 3e
       0.031246372 0.29408538 0.31791797 0.3116594
000340 fa c4 ae 3e 3a 6f e5 3d 4e 33 1a bb 14 21 2f be
       0.34134656 0.112028554 -0.0023529115 -0.17102462
000350 2f 34 84 be d6 30 45 be b5 08 e6 be 88 6f c0 be
       -0.25821063 -0.1925691 -0.44928518 -0.37585092
000360 bd 99 12 bf 9c 6e 0d be f8 0f 1e be 32 fd 56 be
       -0.57265836 -0.13811725 -0.15435779 -0.20995024
000370 96 df bd 3d 94 7f 9c 3c 75 46 b4 bd a4 5f d9 3e
       0.09271161 0.019103803 -0.08802501 0.4245578
000380 b5 c3 79 3e f7 8e 6e 3e 8b 82 7a bd a7 fc d6 3c
       0.24391063 0.23296724 -0.06115965 0.02624352
000390 3a 70 e9 3d ce 16 18 be 5f b3 37 be d7 e2 0e 3e
       0.11398359 -0.1485245 -0.17939518 0.1395372
0003a0 b2 ed 91 be 4d f4 ef be 57 8c d3 bd 0c e9 89 be
       -0.2850166 -0.46866074 -0.10329502 -0.26935613
0003b0 fd bb 46 be 5f b8 88 be 05 73 0b bf 97 cc a7 be
       -0.1940765 -0.26703164 -0.5447238 -0.32773277
0003c0 2a 92 42 be 4f 82 b6 be 20 49 25 be 6e f0 13 be
       -0.1900107 -0.35646293 -0.16141176 -0.14447185
0003d0 15 c5 0e 3d 6a 6a f9 3d 36 dd 5c be c9 26 93 3d
       0.03485592 0.121785 -0.2156876 0.07185132
0003e0 d2 65 06 3f b5 ed b2 bd 26 e2 5d 3d d4 a9 ab 3e
       0.52499115 -0.08736745 0.05417075 0.33528006
0003f0 78 ed 93 be 4e 28 92 be ff bc 7c bd 1c 03 f0 be
       -0.28892112 -0.28546375 -0.06170368 -0.46877372

sep1.pw.weight f4 [59, 29, 1, 1]
000000 05 33 94 3e 5c ad a5 3d 73 fb 7e 3d d6 85 76 3d
       0.28945175 0.08089706 0.06225152 0.06018623
000010 45 dd e4 bc f2 f5 23 be 1a 23 80 3d 87 8b 85 3e
       -0.02793754 -0.1601179 0.06256695 0.26083013
000020 44 db 54 bd d8 08 75 bb 38 30 bd be ca ce 2c bd
       -0.05196692 -0.0037389304 -0.3695085 -0.042189397
000030 83 c8 11 3d 28 f0 10 bc 00 cf 8c 3e 92 82 57 3e
       0.035591614 -0.00884632 0.27501678 0.21045902
000040 a9 e1 81 3c 2a ae a7 be 27 25 49 be a3 a0 b0 3d
       0.015854673 -0.32750064 -0.19643079 0.08624389
000050 46 94 88 3e 55 0f 52 3d 28 19 14 be f5 82 25 be
       0.26675624 0.051284153 -0.14462721 -0.16163237
000060 57 85 eb bd 7a a6 2d be 2c e0 26 3b 89 da 8c 3e
       -0.11500042 -0.16958037 0.0025463207 0.2751048
000070 73 d9 49 3d ca 67 d5 3d 86 28 f9 bd 2c 5f 14 bd
       0.04927964 0.10420187 -0.12165932 -0.036223575
000080 19 f1 aa bd 1c b0 6b bc 0f a8 f6 3d 3d f6 b7 3c
       -0.08346767 -0.0143852495 0.120437734 0.022456283
000090 44 ae 91 3c 90 16 cd 3c 55 bf 48 be d2 a8 1b 3e
       0.017783292 0.025035173 -0.19604237 0.15201119
0000a0 13 62 0f 3e a5 f1 0d be 56 8e 3b be c8 e4 e1 3d
       0.14002256 -0.13861711 -0.18316016 0.11029965
0000b0 03 2f 24 be 0d cb aa be 77 e0 44 3e 5b be 38 3e
       -0.16033559 -0.3335804 0.19226252 0.18041365
0000c0 57 fa b6 3d 65 a8 be bd d0 91 52 be bc 19 90 be
       0.08934467 -0.093094625 -0.20563436 -0.28144634
0000d0 2f 74 3f 3e 05 08 61 3d c3 e6 2f be aa fb c9 3d
       0.18696664 0.05493929 -0.17177872 0.09862454
0000e0 76 ad 54 be 55 33 39 be 5b 9f 4c be f3 a5 6f 3d
       -0.20769295 -0.18085988 -0.19982664 0.05850787
0000f0 04 22 60 3e 63 e4 57 bc 69 42 26 bd 36 07 aa 3d
       0.21887976 -0.01317701 -0.040590677 0.083021566
000100 bd 6d 60 be f8 fc 2b be 94 75 16 bd 6a 3b 81 be
       -0.21916862 -0.16795719 -0.036733225 -0.25240642
000110 b4 3c 62 3d 2b f9 42 3e db c3 68 3e e3 e3 1a 3d
       0.055233672 0.19040363 0.22730963 0.037814986
000120 ba ca 67 3d 62 91 8d 3d e0 61 7c bd 2f d7 52 be
       0.05658982 0.06912495 -0.06161678 -0.20589899
000130 9f 14 79 3e 16 0d 45 3d 1f d9 e8 bc e6 d0 55 be
       0.24324273 0.048108183 -0.028423844 -0.2088047
000140 7c d1 7c be 32 6e f5 3e 14 50 93 be 2d d0 15 3e
       -0.24689287 0.47935635 -0.28772032 0.14630194
000150 2a 72 97 bd 0f 19 73 bd 36 e3 22 bc 28 6f bb 3e
       -0.07394822 -0.05935007 -0.009941867 0.36608243
000160 bb 51 a3 3d ed 5a 62 bd 2f 33 1f 3e c7 99 81 3d
       0.07974573 -0.055262495 0.15546869 0.06328159
000170 f1 86 0c be cf e5 30 3e 52 6a 26 bb 61 37 e3 3e
       -0.13723351 0.17275165 -0.0025392962 0.44378188
000180 d4 a5 9b bc 4d ae 2f 3d 3c 9c 9e 3d ca a9 ca 3d
       -0.018999971 0.042890836 0.07744643 0.09895666
000190 94 e1 b1 3e 97 4d 27 be 7b e3 44 be c5 70 53 3d
       0.34742415 -0.16338192 -0.19227402 0.051621217
0001a0 95 66 72 3d a7 00 56 bd 5f 1f 6b 3e 1b 29 00 3d
       0.05917986 -0.052246716 0.22961186 0.0312892
0001b0 69 1a d6 3c 5e 78 9b be 0e ae aa bd 06 d4 d7 3d
       0.02613564 -0.3036527 -0.083339795 0.10538487
0001c0 60 b0 b0 be c2 fb 23 be 7f db 86 be 2e e5 3f bd
       -0.34509563 -0.16014007 -0.26339337 -0.046849422
0001d0 0f 6e c5 bc a0 82 70 bd 4c d0 6c bd ae 96 23 bb
       -0.024100332 -0.058718324 -0.057815835 -0.0024961638
0001e0 cf 41 e9 3d 97 45 45 3e 98 30 9f bd a0 96 82 bd
       0.11389505 0.19264828 -0.077729404 -0.06376386
0001f0 69 57 45 bd 0e 61 99 3e 1f 55 93 3e 1c 12 11 bc
       -0.048179064 0.2995686 0.2877588 -0.008854415
000200 1f 9e ea bd 91 d0 20 be 17 4a cd 3c b0 60 a1 be
       -0.114559405 -0.15704562 0.025059743 -0.3151908
000210 21 46 1a be 86 76 fa 3d 68 63 a2 be 9e 03 73 bd
       -0.15065815 0.12229638 -0.31716466 -0.05932962
000220 9d 13 07 be 0b 9b 99 3e 8f f7 17 3d 7f 6f a7 bb
       -0.13191076 0.300011 0.037101325 -0.005109727
000230 59 eb 01 be a2 d0 3f bd 4a 56 4b 3e 29 22 b6 3d
       -0.12687434 -0.046829827 0.19857135 0.08893234
000240 98 3e fa be ba 43 dc 3d 79 a2 f1 3a a7 1f 29 3e
       -0.4887588 0.10755105 0.0018435261 0.1651598
000250 09 78 0c 3d 04 ba 4c 3e 44 3c de 3d fb b2 0e 3c
       0.034294162 0.19992834 0.108513385 0.008709664
000260 c6 96 1c 3e ce b6 dd 3e de 69 81 be 3e 9f b3 bd
       0.1529189 0.4330353 -0.25276083 -0.087706074
000270 c2 03 1d 3e 01 dc d0 3b 96 ae 83 3e c6 1b df 3d
       0.15333465 0.0063738828 0.25719136 0.10893969
000280 aa b2 49 3d 65 ec a2 bd 35 8c 66 3e 38 3e 9b 3e
       0.049242653 -0.07955245 0.22514422 0.30320907
000290 45 5e 79 3e 03 aa 9b 3c b6 1f f7 bc 74 c3 e7 bd
       0.24352367 0.019001966 -0.030166488 -0.113165766
0002a0 9f ac 7b 3d 67 a1 a4 bd ec 9a 34 bc bd a5 9d be
       0.06144392 -0.080385976 -0.011023264 -0.3079051
0002b0 48 6b 37 be bc 20 17 3d 18 4f f6 3d ae d5 35 3e
       -0.17912018 0.036896452 0.12026805 0.17757294
0002c0 ca 4e 35 be 13 3d 4a 3e 52 bf 0b 3e 00 63 aa bc
       -0.17705837 0.1974986 0.13647202 -0.02079916
0002d0 f4 1b f8 3d fb a9 96 bc ca b1 9c 3e de 26 19 be
       0.12114707 -0.0183916 0.30604392 -0.14956233
0002e0 62 9e 04 3f 59 ba 3f bd b3 76 7d 3e 63 f6 6c 3e
       0.51804173 -0.046808574 0.24752311 0.23140864
0002f0 6b 25 d4 bd 48 e1 89 be 4d 59 0d 3d 23 18 0c 3e
       -0.103586994 -0.26929688 0.034508992 0.13681082
000300 15 31 03 3e 97 2f ed bd f4 1a c7 bd c8 67 fa bd
       0.12811692 -0.11581343 -0.09721938 -0.12226826
000310 44 29 1d bd 68 bb 6f bd f7 7b 43 3e 83 74 19 be
       -0.038369432 -0.058528334 0.19090258 -0.14985852
000320 a9 45 d9 be 29 f2 03 be 51 1d 24 3d 6e bd 24 3c
       -0.4243596 -0.12885346 0.04006702 0.010054929
000330 6b 54 45 be ff c1 34 3e 9c 0f be be e8 ae d1 be
       -0.19270484 0.17652129 -0.37121284 -0.40953755
000340 3f bc 71 3d cf 6d e0 bc 39 0f 61 39 7b 4f 6d be
       0.059017416 -0.02739611 0.00021463343 -0.2317485
000350 ea 75 e4 3d 5b cc a2 bd fe 39 b3 be 15 72 ab be
       0.11155303 -0.07949134 -0.35005182 -0.33485475
000360 84 ce bb be 75 24 87 3d b9 aa b2 bd df 18 a6 3c
       -0.36680996 0.065987505 -0.08723969 0.020275531
000370 d4 2a af 3b 71 73 db bc 9a a8 ab be f9 28 83 bb
       0.0053456817 -0.026788445 -0.3352707 -0.004002687
000380 a3 5e d5 3d 8d 7b 97 3d 88 61 c9 3e 4f 22 a6 3d
       0.10418441 0.07396612 0.39332223 0.081120126
000390 8f 6e 97 bd bc 62 74 3e d5 9a 81 bd ac 60 32 be
       -0.07394134 0.23865789 -0.0632836 -0.1741969
0003a0 29 46 d0 3d 93 9d f1 bd 9a 8e 17 3e 44 5a 8f bc
       0.10169632 -0.11797633 0.14800492 -0.017499097
0003b0 15 5c 92 bd 1f b4 d0 bd 74 57 59 bd 47 86 96 3d
       -0.071464695 -0.10190605 -0.053061917 0.0734983
0003c0 e7 c9 97 3d bc 69 00 be ad e2 05 be 0f b5 4f bd
       0.07411557 -0.12540334 -0.13074751 -0.05070978
0003d0 d4 1b 49 3e d7 a5 12 3e 5b b3 b8 bd a5 59 82 3e
       0.19639522 0.14321075 -0.09018584 0.25459018
0003e0 cb cf 60 3d 07 de cd be b8 86 2b bc 23 fa 62 3e
       0.054885667 -0.40208456 -0.010469131 0.22165732
0003f0 bc 40 94 3e 7c 46 df bd 4b f5 d2 3e b7 41 c7 bd
       0.28955638 -0.10902116 0.4120277 -0.09729331

sep1.bn.weight f4 [59]
000000 cd 38 a2 3e 94 72 c4 3e 27 8a b2 3e d8 3b 94 3e
       0.3168396 0.38368666 0.34871027 0.28951907
000010 6e 41 80 3e db 5f 51 3e fb 98 c0 3e 77 36 ed 3e
       0.2504992 0.20446722 0.37616715 0.46330616
000020 73 73 a3 3e c4 12 97 3e 26 d2 95 3e c9 eb a3 3e
       0.31924018 0.29506505 0.29261893 0.32015827
000030 aa e5 f3 3e da 33 87 3e 28 75 b5 3e 10 e7 4b 3f
       0.47636157 0.26406747 0.35440946 0.7964945
000040 de e9 95 3e ea 3d b0 3e 11 77 f2 3e ba 85 cc 3e
       0.2927999 0.34422237 0.47356465 0.39945775
000050 9f 2d 53 3f d3 7f 24 3f 68 a3 16 3f 8a fd fe 3e
       0.8249149 0.64257544 0.5884309 0.4980281
000060 40 5c c9 3e 9f 87 77 3e a7 d6 cc 3e 43 35 35 3f
       0.39328194 0.24172829 0.40007517 0.70784396
000070 5d c1 47 3f 6f 94 9a 3e e2 16 ec 3e d0 6c 2c 3f
       0.78029424 0.3019137 0.46111208 0.67353535
000080 59 4c 9b 3e 77 dc 83 3e 5b 59 b5 3e 16 b9 3e 3f
       0.30331686 0.2575414 0.35419735 0.7450117
000090 c2 02 83 3e 47 5d 08 3f 0a 9e ed 3e 0d 62 42 3f
       0.25588042 0.5326733 0.46409637 0.75930864
0000a0 38 00 47 3f b0 29 a2 3e d6 1f bc 3e 5f 0f 79 3f
       0.7773471 0.3167243 0.3674304 0.9728908
0000b0 17 38 93 3e ac 9f 43 3f 78 09 23 3f 98 19 29 3f
       0.2875373 0.76415515 0.63686323 0.6605468
0000c0 e2 8d e1 3e 7d e6 cc 3e 1c 02 6b 3e a7 77 ae 3e
       0.4405356 0.400196 0.22950023 0.34075662
0000d0 f3 03 f0 3e 04 3f e6 3e 82 29 ba 3e 47 23 ff 3e
       0.46878013 0.44969952 0.36359793 0.49831602
0000e0 a0 bb 49 3f e7 b9 94 3e 89 00 5b 3e
       0.7880192 0.29048082 0.21386923

sep1.bn.bias f4 [59]
000000 28 09 22 3e d5 33 1c bd 13 3f 9d bb 6c 91 22 bd
       0.15823805 -0.03813537 -0.004798779 -0.039689466
000010 69 05 92 3e f9 e2 b1 3e 6d cf cd be 0b 4c 34 be
       0.28519753 0.3474348 -0.40197316 -0.17607133
000020 0e a2 d8 3d 72 39 ed bd aa 6f 03 3c 9f a0 14 bc
       0.105777845 -0.115832224 0.008022228 -0.009071498
000030 19 5b a8 bd 54 2b 78 3d 10 f3 83 bd 8b 69 e9 bd
       -0.082205005 0.060588196 -0.06442845 -0.11397084
000040 86 58 9f 3e 54 9a 97 bc 42 c4 a0 3e 09 31 20 3e
       0.31122226 -0.018506207 0.31399733 0.15643705
000050 76 3d b9 be 2c 70 67 be 7c d2 77 3e 42 85 cd bd
       -0.36179703 -0.22601384 0.24201387 -0.100351825
000060 3a 99 b6 3e b6 7f 1a 3f b3 e4 88 bc a0 b1 94 3c
       0.35663778 0.6035112 -0.016710615 0.018151104
000070 b5 72 1c bf 50 c1 d3 3c 8a bf 93 bf 92 0e 83 3b
       -0.6111253 0.025849015 -1.1542828 0.0039995397
000080 c6 92 dd 3d 10 90 14 3e 75 5d 2d 3e 40 af 5e 3c
       0.108190104 0.1450808 0.16930182 0.013591588
000090 1f 7f 7f 3e ae 6d b9 bd a0 e2 30 be 18 70 f6 be
       0.24950837 -0.09054123 -0.1727395 -0.48132396
0000a0 5a ce d1 3d 08 2d 19 bf f5 e9 18 3e 3a 7f 18 bf
       0.102444366 -0.5983434 0.14932998 -0.5956913
0000b0 95 fa 9d 3e 43 f9 60 be 86 6f d2 bc 7e 2d a5 3d
       0.3085524 -0.21970086 -0.025687944 0.080653176
0000c0 44 a1 69 3e 15 14 ae 3b dc 60 79 3e 0d b8 30 3e
       0.22815424 0.0053124526 0.24353355 0.1725771
0000d0 10 88 94 3e 5b b7 23 bf 7f 8f 33 be e2 6f 82 be
       0.29010057 -0.63951653 -0.17535208 -0.25475985
0000e0 55 bb bf be 5b ff 25 3d 4c 8b f9 3e
       -0.3744761 0.04052673 0.48739088

sep1.bn.running_mean f4 [59]
000000 45 8c 60 3e c2 fc 2c 3d 7e e9 a1 bc b6 3e a3 be
       0.21928509 0.042233236 -0.019764658 -0.31883782
000010 ec e4 5c 3e 5f 6d 8e be a5 ea 92 be 7c 34 81 3e
       0.21571702 -0.2781782 -0.28694645 0.25235355
000020 a0 7d ff 3d 36 7b 9e bd af 56 41 3d 0f 7a 96 be
       0.12475133 -0.07738344 0.04720181 -0.29389998
000030 07 34 76 be 37 f5 d1 3d 2a 30 9b bb 45 d9 89 be
       -0.24043284 0.10251849 -0.004735966 -0.26923576
000040 48 b7 73 be d3 34 14 be 59 68 17 be 9e c9 05 be
       -0.23800385 -0.14473276 -0.14785899 -0.13065192
000050 fd b5 8c be 36 16 ec bd 72 53 d9 be e5 34 57 bd
       -0.27482596 -0.11527674 -0.42446476 -0.05254068
000060 b7 ac 3a bd 15 e0 8d 3d ac 6c 0f 3c b6 fb d0 be
       -0.04557487 0.06927506 0.008753937 -0.4081704
000070 71 e8 da be 04 96 4e bd 7d 1a f8 bd 88 e9 58 be
       -0.42755464 -0.050436035 -0.12114427 -0.21182835
000080 40 62 57 3d 11 cd 1a 3d 01 53 e6 bd ff 9c 8f be
       0.052583933 0.037793223 -0.112463005 -0.28049466
000090 8e 65 8b 3e f3 ac 86 bd 86 2d 9f bd 4e 43 ac be
       0.27225918 -0.06575956 -0.07772355 -0.336451
0000a0 71 de 9f be be 56 04 bd bb 36 8b bc 28 f9 b8 bc
       -0.31224397 -0.032309286 -0.016993871 -0.022579744
0000b0 8f 3a 5a 3e bd 5a 31 be 8a f1 3f be 3f 91 4e be
       0.21311401 -0.1731977 -0.18744484 -0.20172594
0000c0 b5 3b 78 be d9 60 9a 3c 44 1e 36 bd 7c 01 2a 3b
       -0.24241526 0.018845009 -0.044462457 0.0025940826
0000d0 0d 3a 20 be 5e 48 01 bf 6f 32 33 be 40 26 51 bd
       -0.15647145 -0.5050105 -0.17499708 -0.05106187
0000e0 3e 95 8e be 5b 08 c8 3d 2c 68 23 be
       -0.27848238 0.09767219 -0.15957707

sep1.bn.running_var f4 [59]
000000 04 4e 22 3e 82 05 a2 3d b9 ba b2 3d 84 c9 80 3d
       0.15850073 0.07911207 0.08727021 0.06288436
000010 f3 a5 d5 3d c3 49 5e 3d 78 f7 3e 3d 7c d6 97 3d
       0.10432043 0.054269563 0.046622723 0.074139565
000020 cd 1d 08 3e 6e c9 80 3d 82 1c 62 3d 1f 1e 86 3d
       0.13292618 0.0628842 0.05520297 0.06548714
000030 23 33 d8 3d 96 e4 d3 3d 03 a2 97 3d 9f e8 8e 3e
       0.105566286 0.10346334 0.07403948 0.2791185
000040 9e 52 dd 3d e1 c7 c3 3d cb 29 14 3e c7 96 a6 3d
       0.108067736 0.09559608 0.14469068 0.08134227
000050 eb c6 41 3e d7 fd 27 3e dc 01 8a 3e de 40 d5 3d
       0.18923537 0.16405426 0.26954544 0.10412763
000060 6a eb f5 3d f1 5f a0 3d 16 d9 ff 3d 0a 50 a4 3e
       0.12007792 0.07830799 0.12492578 0.32092315
000070 ea 9e 88 3e 60 12 78 3d 29 a5 95 3d b0 47 ee 3d
       0.26683742 0.0605644 0.073068924 0.11634767
000080 50 c3 af 3d f3 19 89 3d d4 7d bf 3d a1 ad 30 3e
       0.08582175 0.066944025 0.09350172 0.17253734
000090 b4 e2 b4 3d c0 8e c6 3d 53 45 a4 3d a4 42 6f 3e
       0.08832303 0.09695196 0.08021035 0.23365265
0000a0 96 26 6c 3e e7 2e f5 3c 73 ba d4 3d 79 af 87 3e
       0.23061594 0.029929591 0.10387125 0.26501063
0000b0 3f aa 08 3e e1 ed 48 3e d6 7b 86 3e 5d 53 2d 3e
       0.13346194 0.19621994 0.26266354 0.16926332
0000c0 f0 3c 53 3e 43 91 d3 3d 19 3a 6b 3d dd 11 86 3d
       0.20628715 0.10330441 0.057428453 0.06546376
0000d0 de 4b 2e 3e 60 eb b4 3d 20 e2 92 3d b0 b9 ba 3d
       0.17021129 0.08833957 0.07172036 0.09117448
0000e0 6a 31 8f 3e 6d bb c1 3d cd 25 9b 3d
       0.27967387 0.09459577 0.07575569

sep2.dw.weight f4 [59, 1, 3, 3]
000000 9e b4 3f bd 72 7b 2a be 8e 4c 28 be cd ae 43 bb
       -0.04680311 -0.16648653 -0.16435453 -0.0029858828
000010 4f 50 9c 3d 90 e9 f0 3e 14 14 e0 bd b2 e7 36 3d
       0.07632505 0.47053194 -0.109413296 0.044654556
000020 82 43 14 3f b7 b3 75 3e fb b5 95 3e 86 9e dc 3c
       0.5791551 0.23994337 0.29240403 0.026931059
000030 aa 38 51 3e ec df 75 3e c9 e2 6f 3e d3 53 6a 3c
       0.20431772 0.240112 0.23426355 0.014302212
000040 02 5a 96 3c 01 df 3f bc 24 54 ab 3e 22 c4 93 3e
       0.018353466 -0.011710883 0.33462632 0.28860575
000050 a5 5e 0b 3d f4 47 ae 3e ba d5 93 3e f3 a3 64 3d
       0.034025807 0.3403927 0.28873998 0.055820417
000060 61 62 fb bc 03 1e 2f be 1b 29 16 be 6e db 50 bd
       -0.03068656 -0.17101292 -0.14664118 -0.050990514
000070 18 a2 76 be de 0e 69 be 31 0c da 3d ec 19 09 bb
       -0.24085271 -0.22759578 0.106468566 -0.0020919992
000080 df 87 0c be 3d c1 b5 3e 3d ee b2 3e c9 49 5b 3e
       -0.13723706 0.35498992 0.34947386 0.21414866
000090 cd 0c b6 3d 5c a0 30 be 4a 37 14 be 0d be df 3e
       0.0888916 -0.17248672 -0.14474216 0.43699685
0000a0 c0 56 2a be 90 49 19 be b6 fa 0d 3f 64 6f e9 3a
       -0.16634655 -0.14969468 0.5546068 0.0017809686
0000b0 c5 81 19 be e3 eb a0 be b4 b5 4b be 00 19 17 be
       -0.1499091 -0.31429967 -0.19893533 -0.1475563
0000c0 5d a7 5f bd 0f f5 3a 3d 7d 24 8f 3d b8 6d 41 be
       -0.05460297 0.045643862 0.069893815 -0.1888951
0000d0 30 02 b9 3e 71 7d 9e 3e 04 13 dd bd e6 fd 84 be
       0.3613448 0.3095508 -0.107946426 -0.2597496
0000e0 7a 8f 3f be 66 ab 9a be 85 2d 95 be 6d 8b ad bc
       -0.18707076 -0.30208892 -0.2913629 -0.021184647
0000f0 a3 b2 c4 bd e6 3b 08 3d 8b 2e d8 3d 5a 1c 97 3e
       -0.09604385 0.03326025 0.10555752 0.29513818
000100 28 e8 91 3e 31 25 b2 3d a8 61 c0 3e 4c 6a 86 3e
       0.28497434 0.086985 0.37574506 0.26252973
000110 8f 62 06 3e cf f4 88 3d dd cb 26 bd 18 2f cb 3d
       0.13123535 0.066873185 -0.040721763 0.09921092
000120 a0 b0 2e 3d 38 7b 40 3e b2 95 e3 bc 47 00 f4 bd
       0.04264891 0.18797004 -0.027781341 -0.119141154
000130 41 b9 81 be eb ab bf be 71 ea 0c 3d 7b af f2 3e
       -0.2533665 -0.3743585 0.03440327 0.47399506
000140 f1 bb 01 3f 41 82 96 bd a0 93 c4 3d 5a e0 c3 3d
       0.506774 -0.07349063 0.0959847 0.09564276
000150 73 3c a8 be 5d 9f 7a bd a0 0d 92 3d a3 42 06 bf
       -0.3285862 -0.061187137 0.07131505 -0.5244543
000160 1a b5 7a be b9 84 21 bd 2d 9e 53 be d1 86 31 be
       -0.24483147 -0.039433215 -0.20665808 -0.17336585
000170 74 2c 2b 3e e9 78 02 be a4 23 d3 3c 96 39 aa 3e
       0.16716176 -0.12741436 0.02577383 0.3324706
000180 05 71 2b 3a fb b4 b4 3e 7e a7 80 3e 2f 16 09 3c
       0.00065399735 0.35294327 0.25127786 0.008367105
000190 55 71 2f be bb 7e 6c be 64 a1 82 3e 50 5d 4e bc
       -0.17133076 -0.23095219 0.25513756 -0.01259549
0001a0 00 ee 92 be 10 75 b0 3e bd 3c 9e 3e 8a 4b 02 be
       -0.28697205 0.34464312 0.30905715 -0.12724128
0001b0 83 28 ee 3e 8f 82 8b 3e fc b5 62 be 7a 17 a4 38
       0.46515283 0.27248046 -0.22139734 7.824502e-05
0001c0 8a 6f 8c be f6 1b c3 be e4 6d 96 bd 26 61 70 3d
       -0.27428848 -0.3810727 -0.07345179 0.058686398
0001d0 07 5b 6a 3e d2 65 d1 3c bb 31 64 be a6 77 24 bf
       0.22886287 0.025561247 -0.22284596 -0.6424507
0001e0 ef 0c 93 3c e9 05 98 bd c3 7c 4e be 30 a5 dd 3d
       0.017950503 -0.07423002 -0.2016478 0.10822523
0001f0 e1 6d 92 3d 9e f0 bf 3c ac 95 44 3e 7b d0 65 3e
       0.07149864 0.023430165 0.1919772 0.2244281
000200 92 a3 c1 3d 9c 52 a4 be e3 32 83 be a3 39 cb bb
       0.09455027 -0.32094276 -0.2562476 -0.006201939
000210 97 5b bc be 34 bd 2f be 74 fe d2 3d 11 89 c5 3e
       -0.36788628 -0.17162019 0.10302439 0.38581136
000220 5d c6 23 3e 89 b9 b8 3d 8c b4 df 3d 96 1b 9b be
       0.15993638 0.09019763 0.109231085 -0.30294484
000230 ab 5b 27 be ae 94 4f be 71 60 1e bf ed 40 45 be
       -0.16343562 -0.2027156 -0.6186591 -0.19263048
000240 cd ee 8e be 04 13 b2 bc bf 0d a0 3d d9 c5 ba be
       -0.27916566 -0.021737583 0.07815122 -0.3647907
000250 d4 7c c5 be 3a e9 56 3e cc 42 93 3e 45 03 9a 3e
       -0.385718 0.20987406 0.287619 0.3008062
000260 20 fb 01 3e dc 47 30 be ca ad b3 be 3c af 82 be
       0.12693453 -0.17214912 -0.35093528 -0.25524318
000270 16 b8 7e 3e 96 01 0e bd 58 e9 b9 be 99 8c b3 3e
       0.2487491 -0.03466948 -0.3631084 0.35068205
000280 52 09 5b 3e 8a bf 10 bd 5d eb db 3e 86 26 fa 3e
       0.21390274 -0.035338916 0.42953005 0.48857516
000290 5a ad ff 3d 9a 4c 0f be 7d e7 82 be 61 e2 96 be
       0.12484236 -0.13994065 -0.25567237 -0.29469588
0002a0 c9 6a 46 bd 71 72 3c be 5c ed ef bd 9b 7f 62 be
       -0.048441682 -0.18403031 -0.117151946 -0.2211899
0002b0 1a c2 5e bb 5e 38 8d 3e 3a 9b ac be 83 4a 6c bd
       -0.0033990205 0.27582067 -0.33712178 -0.057688247
0002c0 dd 2e f4 3e ae 8e 7c be a1 e7 69 be 7e 1f 4f 3e
       0.47692004 -0.24663803 -0.22842266 0.20226857
0002d0 0d bc b6 3d ab 31 5f be a5 21 e7 be 61 65 cb 3e
       0.089225866 -0.2179629 -0.45142856 0.39725783
0002e0 d5 6c 09 be d1 43 0c bf 1a 0a 77 3e b2 cc 17 be
       -0.13420422 -0.5479098 0.24124947 -0.14824179
0002f0 6a 9a 81 be 04 0e 23 3d 57 81 a6 3e 49 75 5a bc
       -0.2531312 0.03980829 0.32520553 -0.013333627
000300 45 8c 17 3e 1b e1 10 3f 7f ea b6 3e b5 aa 18 be
       0.14799602 0.56593484 0.3572578 -0.1490887
000310 1a d6 3f be 7b b5 97 bd 25 72 fd bd a4 92 d3 be
       -0.18734017 -0.074076615 -0.12375287 -0.41322815
000320 ac b2 c3 be 2a 88 2d bd c9 b7 f8 bd 5b 46 74 be
       -0.38222253 -0.042366184 -0.12144429 -0.23854963
000330 b8 16 a5 3e 1f bb e1 3e 70 1e a0 3e f7 df c1 3a
       0.32243896 0.44088075 0.31273222 0.0014791478
000340 26 ab 9d 3d 54 9e f2 3d 3e 18 2b 3e a5 66 a1 3e
       0.076986596 0.11846605 0.16708466 0.31523624
000350 43 69 a1 3e 5c 47 6b 3e 66 25 a5 3e 5b e8 85 3e
       0.3152562 0.2297644 0.32255095 0.26153836
000360 6b bc c5 3e 59 0f d3 3e fd 6b bf 3d 5a 08 9b 3d
       0.38620314 0.41222647 0.09346769 0.07569952
000370 46 72 f1 bd 8b 2a 59 be 43 fb ec be 1f 6a 91 be
       -0.11789374 -0.21207635 -0.46285447 -0.28401276
000380 f5 ae 95 3d ae 36 8b be 81 93 1f 3d 69 e9 28 3c
       0.07308761 -0.27190155 0.03895903 0.010309556
000390 08 87 f5 bd 06 bb 1c 3f 6f 5b 15 be 87 36 2b be
       -0.11988646 0.61222875 -0.1458566 -0.1672002
0003a0 78 76 bc 3e 6b 2e 7a be 69 a1 a2 3e 1a 4e 17 3f
       0.36809134 -0.2443177 0.3176377 0.5910355
0003b0 15 b0 ef 3e 91 c9 45 be 45 51 61 be c3 ba 77 be
       0.46814027 -0.19315173 -0.22003658 -0.24192338
0003c0 4e f3 df bd 6e 0a f8 bd 66 6b d2 3d f3 0f d0 bd
       -0.109350786 -0.12111364 0.10274391 -0.10159292
0003d0 57 db cb bd a9 b2 a3 be 78 30 b8 3e c4 61 0f 3e
       -0.09953945 -0.31972244 0.3597448 0.14002138
0003e0 fd 7d 80 be 28 e0 0a 3f 95 76 2d 3e b3 62 c2 be
       -0.2509612 0.54248285 0.16939767 -0.37965927
0003f0 9d 36 14 be 04 89 03 bf 9d 20 b9 be 08 ed 94 be
       -0.14473958 -0.51380944 -0.36157694 -0.2908709

sep2.pw.weight f4 [118, 59, 1, 1]
000000 53 a6 45 be d0 9a 62 3c 74 39 6d 3d 2b 5d 43 3d
       -0.19301729 0.0138308555 0.05791612 0.047696274
000010 54 95 48 bb da b7 28 be 3d cc 29 bd 54 25 35 be
       -0.0030606585 -0.16476384 -0.041454542 -0.17690021
000020 cd 66 a2 bd 83 82 d5 bd b4 ae 3f be 11 42 48 bd
       -0.07929764 -0.10425284 -0.18718988 -0.04889113
000030 7b 11 9a 3c 75 63 9c 3d 2e d2 97 bd 78 c1 aa 3d
       0.018807163 0.076361574 -0.074131355 0.083376825
000040 20 03 4e be 1a 42 a3 bd d7 31 8d bd 51 fe fa 3d
       -0.2011838 -0.07971592 -0.06894272 0.12255538
000050 a6 4b 82 be 16 b9 af bb 67 5d a3 3d b3 27 c6 bd
       -0.2544834 -0.00536264 0.079767995 -0.09675541
000060 6f 6c 0d bb 42 15 1e 3e 8d ba 17 3d b9 62 43 bd
       -0.0021579524 0.15437797 0.037043143 -0.04770157
000070 1e 58 62 be 12 d3 2c be 5b 06 81 bd cd ee 6d 3b
       -0.22103927 -0.16877392 -0.0630004 0.0036305666
000080 d1 19 43 be 57 7f aa 3d 33 3f 83 bd 77 d9 01 be
       -0.19052817 0.083250694 -0.06408539 -0.12680613
000090 73 0d d0 3d 86 1e a4 3d 19 4e bf bc 48 89 c4 bd
       0.10158815 0.080136344 -0.02335267 -0.09596497
0000a0 40 f1 14 be db 49 dd 3d ba f8 85 bb ec 3b be bc
       -0.14545155 0.108051024 -0.0040884884 -0.023221932
0000b0 ef 5b e9 bd 23 31 13 bd af 9d e6 bc cb e6 f2 bd
       -0.11394488 -0.035935532 -0.028151361 -0.118604265
0000c0 61 0a 17 bd f0 f8 1e 3e dd 93 b9 3c cb 8e 0a 3d
       -0.036875132 0.1552465 0.022653515 0.033827584
0000d0 e5 f1 b6 bc ca 5c 0e 3d 68 8b 19 be e9 90 1c bd
       -0.022332141 0.03475646 -0.14994586 -0.038224135
0000e0 c6 1d 5a be 1a 63 18 3e 53 06 1e be de 25 d2 3d
       -0.2130042 0.14881554 -0.154321 0.10261129
0000f0 36 c2 c5 be f7 ca bf 3c 05 05 93 bd 9e f5 3a be
       -0.38624734 0.02341221 -0.07178692 -0.18257758
000100 41 7f 25 bd 77 44 7d 3d c9 80 bc bc fa 72 17 bd
       -0.040404562 0.06183287 -0.023010628 -0.036974885
000110 e7 21 43 3e f3 31 31 be 1b a8 84 3c 67 38 9d bd
       0.19055901 -0.1730421 0.01619344 -0.076767735
000120 eb 32 d9 3b 64 bf 0a 3d 0e b5 2c be fc 02 2d 3d
       0.0066283843 0.03387393 -0.16865942 0.042239174
000130 b4 22 76 bd 49 ff 89 bd a4 9c 21 3a b9 ee 07 3e
       -0.06009169 -0.06738145 0.0006165004 0.13274659
000140 d9 45 3f bd a8 6a 30 be bb b2 92 be 0a 9c 08 3e
       -0.04669747 -0.17228186 -0.28651986 0.13340774
000150 3d b0 4c 3d 0c 1e f1 3d 43 d9 c3 bc e3 fb f3 bc
       0.04997276 0.11773309 -0.02390731 -0.029783195
000160 87 40 ad bd 23 3f 12 3d c3 29 2c bd 7c 59 4f bd
       -0.08459573 0.035704743 -0.042032015 -0.05062245
000170 e0 81 0d 3d d3 1f 09 3d 85 33 8a 3d 44 8e aa bc
       0.034547687 0.033477616 0.06748108 -0.02081979
000180 2b 71 75 be 28 2b 19 3d 13 f3 be 3d cb 8d 2b bd
       -0.23968951 0.037394673 0.093237065 -0.04188327
000190 2e dc 88 be 66 26 88 bd 20 a1 24 3d 33 d5 8c 3c
       -0.26730484 -0.06647949 0.040192723 0.017191505
0001a0 8f 61 e9 3d 75 04 f9 bd b3 91 6d 3c 22 a0 00 3d
       0.11395561 -0.12159053 0.014500069 0.031402715
0001b0 21 b6 a9 be d6 86 0b be 95 5a 16 3c 70 01 1d be
       -0.33146766 -0.13625655 0.00917687 -0.1533258
0001c0 26 bf 7e bd 68 11 06 3d 59 64 31 3e ca 7b 15 bd
       -0.062194012 0.032731444 0.17323436 -0.036495008
0001d0 3d 17 00 3e 18 ae d9 bd 7e ce 18 bd a4 13 59 3d
       0.12508865 -0.10628909 -0.0373063 0.052997246
0001e0 d6 76 ab bd 88 99 5b be d7 09 01 3e b1 5e ec bd
       -0.083722755 -0.21445286 0.1260141 -0.115414985
0001f0 8d a9 a3 3e 89 16 3b bd f9 16 45 bd 02 88 d6 3d
       0.31965294 -0.045675788 -0.04811761 0.1047516
000200 d6 39 8d 3d f2 4f a6 be 73 ec b8 bd 5f c9 80 bd
       0.06895797 -0.32482868 -0.09029474 -0.062884085
000210 4b ca 11 bd 5a d7 8a bd 2c 42 0b 3e 5f 57 31 3e
       -0.035593312 -0.06779356 0.13599461 0.17318486
000220 8c 8d 8e bd 37 ae 87 bd e0 10 b5 3d 09 c5 56 bd
       -0.06960592 -0.06625026 0.08841109 -0.052434
000230 78 d5 88 3c 9d d0 26 be 82 82 95 bd 31 a2 d2 bd
       0.016703352 -0.16290517 -0.07300283 -0.10284842
000240 2c 69 1f be 61 d4 75 bd 0c d4 06 3d 79 cc 17 bd
       -0.15567464 -0.060016993 0.032917067 -0.037060235
000250 02 46 d7 bd 1d b9 f8 3d 8d a1 e5 bd 05 41 6b bd
       -0.105114 0.121446826 -0.11212454 -0.057435054
000260 95 c9 00 3e 02 e3 6a bb b4 65 af bc cf dd 42 3e
       0.12576897 -0.0035840874 -0.0214108 0.19029926
000270 54 79 1c bd a2 7b ff bd f3 a5 b2 3c bc 68 10 3e
       -0.038201645 -0.12474753 0.021807646 0.14102453
000280 0e b5 3b 3c 56 10 f0 3c 8b b6 34 3e e4 ee 94 3e
       0.011456741 0.029304665 0.1764776 0.2908851
000290 e1 1c 0b 3e e2 40 5f 3e c6 42 70 bd 09 88 fe bd
       0.13585235 0.21802095 -0.05865743 -0.124282904
0002a0 cd 0b d0 bc 82 23 0a 3e ff d4 37 3e 16 bc 37 3d
       -0.025396252 0.13490108 0.17952345 0.044857107
0002b0 7f 4e 95 3d ef e3 5b 3e fa 85 65 be 80 bc 27 3d
       0.072903626 0.21473669 -0.22414389 0.040951252
0002c0 6f c0 36 bd b3 38 fd 3c 0c 29 a0 bd 2b 68 04 be
       -0.044617113 0.030910825 -0.07820329 -0.12930362
0002d0 10 01 3a be 6c ec 2f be f4 78 19 3d dd 12 ea 3b
       -0.18164468 -0.17180032 0.037468866 0.007143362
0002e0 40 95 33 3d f2 fd 1d 3e 19 02 5f bd 76 d4 5d 3d
       0.043843508 0.15428904 -0.05444536 0.054157697
0002f0 e0 f9 79 be ae 70 86 bd df 6e a5 bd 4c 3d 30 bd
       -0.24411726 -0.06564461 -0.080777876 -0.043027207
000300 77 47 21 3e 6e c8 cd bd f3 2d a0 3d b8 05 00 be
       0.15749918 -0.100479946 0.07821264 -0.12502182
000310 fa aa 61 bd 65 47 14 3e 3f 56 06 3d 9c b7 27 be
       -0.055094697 0.1448036 0.032797094 -0.16378635
000320 62 fd d3 bd 9c 1b 8b 3d 1d 28 ad 3b f5 e0 e6 bd
       -0.10351063 0.067923754 0.005284323 -0.11273376
000330 89 57 b7 3e 2a b7 47 3e 34 2a 92 3e ec 0f 8f 3c
       0.35808972 0.19503465 0.28547823 0.017463647
000340 0c 64 93 3d a5 5a 44 3d f7 3f cd bd 43 c7 60 3e
       0.07196817 0.047938008 -0.10021966 0.21951012
000350 ca d1 42 3e d6 a5 fe bd fe 87 b3 bd 2e 6b c8 3c
       0.1902534 -0.124339744 -0.08766173 0.02446517
000360 55 96 56 3e cc 9e e0 bc 4d a8 19 bd 27 c5 3a 3e
       0.20955785 -0.02741947 -0.03751402 0.1823927
000370 f1 41 98 3c d1 c3 87 3d 9c d2 51 3d 9f be 1b be
       0.01858613 0.06629146 0.051226243 -0.15209435
000380 b3 35 41 bd eb 83 a6 3d 69 1e 30 bd f1 47 6b bc
       -0.047170352 0.0813063 -0.04299775 -0.014360414
000390 e4 41 35 be db 54 14 be 44 57 c0 3c b2 aa 40 bd
       -0.17700917 -0.14485495 0.023479111 -0.047037788
0003a0 13 64 36 3e 0e c8 29 bd b2 5a 30 be 74 9b b1 3d
       0.17811613 -0.041450553 -0.17222098 0.086722285
0003b0 aa c0 2c 3d ec 3a d1 3d f3 8e 20 3e 5e 48 68 3d
       0.042175926 0.102163166 0.15679531 0.05670964
0003c0 f6 1f da 3d cd a5 d9 3d cf 64 a7 bd d6 8c 95 bd
       0.10650627 0.10627327 -0.081735246 -0.07302253
0003d0 e2 a7 44 bd bf 14 57 bd 79 f6 f2 3d e0 48 87 38
       -0.048011668 -0.05251002 0.11863417 6.450876e-05
0003e0 a0 a0 63 be ef 93 ae 3e 91 c2 1e 3b d5 24 4a bd
       -0.22229242 0.3409724 0.0024224857 -0.049351532
0003f0 26 f5 5b 3e c1 49 fc 3d 7d 85 a6 3d 7b eb 2f be
       0.21480235 0.12318755 0.081309296 -0.17179672

sep2.bn.weight f4 [118]
000000 b5 92 a3 3e 1e 59 c9 3e dd 64 c2 3e bc 1b a2 3e
       0.31947866 0.39325804 0.37967578 0.31661785
000010 f5 44 cd 3e 3a af 91 3e 69 40 b6 3e aa 46 8e 3e
       0.40091673 0.28454 0.35596016 0.27788287
000020 44 b4 b1 3e 60 e6 ca 3e 0d f8 85 3e 9f 88 91 3e
       0.34707844 0.39628887 0.2616581 0.28424546
000030 ec 96 9b 3e 03 e8 03 3f 58 73 9f 3e fb c9 0d 3f
       0.30388582 0.51525897 0.31142688 0.5538632
000040 13 35 96 3e ac 69 ca 3e f8 da 97 3e 1d eb d6 3e
       0.29337367 0.39533746 0.29659247 0.41976252
000050 83 09 d6 3e 6e bc 6d 3e fc 98 bf 3e 50 8d 93 3e
       0.41804132 0.23216411 0.37421405 0.2881875
000060 63 55 9d 3e b7 ea 8f 3e ee 10 dc 3e ca 14 bf 3e
       0.30729207 0.2810876 0.42981666 0.37320548
000070 93 fb 84 3e 7c 7c 83 3e d7 20 a0 3e f2 48 dd 3e
       0.25973186 0.25680912 0.31275055 0.43219715
000080 9f f8 bf 3e e3 f8 07 3f 19 de 0c 3f b4 3c 96 3e
       0.3749437 0.53114146 0.55026394 0.29343188
000090 c5 63 c2 3e 85 06 dc 3e 20 6e 0d 3f a0 45 a1 3e
       0.37966743 0.42973724 0.5524616 0.31498432
0000a0 c1 58 e4 3e 53 de c7 3e 85 2d f6 3e ad 9e 07 3f
       0.44598964 0.39036807 0.48081604 0.52976495
0000b0 9c d4 dc 3e bc d5 c2 3e 66 e2 c9 3e 48 ed c3 3e
       0.43130958 0.3805369 0.3943054 0.3826697
0000c0 38 6e e6 3e 8c 0c d9 3e ee d4 df 3e 45 40 be 3e
       0.45005965 0.42392385 0.4371714 0.3715841
0000d0 63 b8 c4 3e b5 89 bc 3e 25 2f 12 3f 2c e7 c9 3e
       0.38421926 0.36823812 0.57103187 0.39434183
0000e0 93 76 a7 3e e1 6e d6 3e ac d5 e6 3e 5f 6d 9f 3e
       0.32707652 0.4188147 0.45084894 0.3113813
0000f0 20 0a 1a 3f 3f 09 8f 3e 13 90 07 3f b3 f8 8a 3e
       0.601717 0.27936742 0.52954215 0.27142867
000100 dd 66 b5 3e 5f 83 fd 3e f1 7c 39 3e 99 32 14 3f
       0.3543004 0.4951429 0.18114068 0.57889706
000110 58 00 08 3f 3d 34 bf 3e 36 75 c8 3e 47 69 73 3e
       0.53125525 0.37344542 0.39151925 0.23770629
000120 8b 3d a2 3e ab c8 14 3f 8c 2e a7 3e 34 aa b1 3e
       0.3168758 0.58118695 0.326527 0.34700167
000130 77 0e e0 3e 04 59 a0 3e 22 9a da 3e a8 b0 c6 3e
       0.43761036 0.31317914 0.4269572 0.38806653
000140 33 a5 8a 3e 4f 0f b1 3e 63 3f 9b 3e 2d 23 c6 3e
       0.27079162 0.34581992 0.30321798 0.38698712
000150 b4 e1 d8 3e 0e 31 bb 3e 5b e9 ef 3e b1 dc ad 3e
       0.42359698 0.36560863 0.46857724 0.33957437
000160 9c aa 07 3f 2d 5f 83 3e 74 af 60 3e 2f 30 15 3f
       0.52994704 0.2565855 0.2194193 0.5827665
000170 98 4d dd 3e de f0 92 3e 02 e8 10 3f 8b 0d d6 3e
       0.43223262 0.28699392 0.56604016 0.41807207
000180 58 7e b3 3e 7a 15 b8 3e 51 9f 90 3e a5 c8 00 3f
       0.3505733 0.35953885 0.2824655 0.5030616
000190 3c 68 e9 3e 57 69 f2 3e cd 30 a9 3e 34 6b b4 3e
       0.45587337 0.47345993 0.33045045 0.3523804
0001a0 13 4d 14 3f 33 2b e1 3e b2 ea d3 3e e0 ba e8 3e
       0.57930106 0.4397827 0.41389996 0.45455074
0001b0 f4 f2 d9 3e a0 64 9b 3e d0 a9 99 3e 15 03 eb 3e
       0.4256817 0.30350208 0.3001237 0.4590079
0001c0 50 01 b5 3e 22 33 91 3e a7 07 79 3e 7a 7c 96 3e
       0.35352564 0.28359324 0.24319325 0.29391843
0001d0 58 ac 1f 3f 52 40 a8 3e
       0.6237235 0.32861573
